model/ConvNet.pt (torch, 959609 bytes, 28 tensors)

conv1.weight f4 [32, 1, 5, 5]
0	0xbd1cfc1c	-0.038326368
1	0x3dcbc29a	0.09949227
2	0x3e848c9e	0.25888532
3	0x3ce7bba0	0.028287709
4	0xbf243c2d	-0.6415432
5	0xbe8849c0	-0.26618767
6	0xbeb6d01a	-0.35705644
7	0xbe32a440	-0.17445469
8	0x3e26fbdd	0.16307016
9	0xbf01e9de	-0.5074748
10	0x3e400f54	0.18755847
11	0x3eccb7b8	0.39983916
12	0x3e77eec5	0.24212177
13	0x3f04a7f6	0.5181879
14	0x3e38b54a	0.18037906
15	0x3e4073bb	0.18794148
16	0xbe8ee7bb	-0.2791117
17	0xbef6030c	-0.480492
18	0x3e44e482	0.19227794
19	0x3b7a2c75	0.003817347
20	0xbe818452	-0.25296265
21	0xbddaa7db	-0.10676547
22	0xbeab4da1	-0.33457664
23	0xbc6ff704	-0.014646295
24	0x3e131e99	0.14367141
25	0xbea3e432	-0.32010037
26	0x3e1fbeb8	0.15600097
27	0xbde60d6e	-0.1123303
28	0x3d84cd50	0.06484473
29	0x3d9f43ae	0.07776581
30	0xbe80b5ad	-0.25138608
31	0x3d996cda	0.07491465
32	0xbe8dabe5	-0.27670208
33	0x3d6d26cf	0.05789834
34	0x3e4ec6eb	0.20193069
35	0xbee8fc26	-0.45504874
36	0xbd3f195a	-0.046655037
37	0x3e74114b	0.23834722
38	0x3e14b5c1	0.14522459
39	0x3d71052e	0.05884283
40	0xbde311fd	-0.11087415
41	0x3ec1f69b	0.37883458
42	0x3e9f03c5	0.31057563
43	0x3d7d6fc0	0.06187415
44	0x3d52503a	0.05134604
45	0x3c747592	0.014920609
46	0x3de68857	0.112564735
47	0xbea9d363	-0.33169088
48	0xbf2c4c3d	-0.6730383
49	0xbe28be9c	-0.16478962
50	0x3dde1e57	0.108456306
51	0x3e84054f	0.257853
52	0xbd14e5bf	-0.036351915
53	0x3dfb906f	0.12283408
54	0xbe056a55	-0.13028844
55	0xbe4641bd	-0.19361015
56	0x3dfa93cf	0.122352235
57	0x3e0edb53	0.13950853
58	0x3e820c19	0.25399855
59	0xbe370ae7	-0.17875253
60	0x3db45ecc	0.088071436
61	0x3ea8def5	0.32982603
62	0x3e19808f	0.14990447
63	0xbe446137	-0.1917771
64	0xbf01aaca	-0.5065123
65	0x3e32733e	0.17426774
66	0x3d429189	0.047502074
67	0xbe64c37e	-0.223402
68	0x3d9744e1	0.073861845
69	0xbef58732	-0.47954708
70	0x3e5102fe	0.20411298
71	0xbe7d55cc	-0.2473976
72	0xbca99a03	-0.020703321
73	0x3d9602dc	0.07324764
74	0xbdbc57ec	-0.09196457
75	0x3e64fe32	0.22362593
76	0xbdd07260	-0.10178065
77	0xbeabd0c2	-0.33557707
78	0x3e9dc2a2	0.30812556
79	0x3e313fdd	0.17309518
80	0x3dbfafb6	0.09359686
81	0xbe9a4d57	-0.3013713
82	0xbea35a51	-0.31904843
83	0x3eb9bee1	0.36278442
84	0xbefc4123	-0.49268445
85	0xbe7133ce	-0.23554918
86	0x3e8df36e	0.27724785
87	0x3e0446e1	0.12917663
88	0x3e812a5a	0.25227624
89	0xbe3fc4f6	-0.18727478
90	0x3daf2be7	0.085532956
91	0x3e3acf80	0.18243217
92	0x3e58573e	0.2112703
93	0xbdca353e	-0.098734364
94	0x3e643d99	0.22289123
95	0x3d935396	0.07193677
96	0x3dc7fb45	0.09764723
97	0xbdc87fb3	-0.09789982
98	0xbca1f31e	-0.019769248
99	0xbdcfa092	-0.10138048
100	0xbecdeeed	-0.40221348
101	0x3e3817e9	0.17977871
102	0x3e7ce182	0.246954
103	0xbe3d12ac	-0.18464154
104	0x3db7e05c	0.0897834
105	0xbd67ae56	-0.056562744
106	0x3eab01ad	0.33399716
107	0x3e4bc9da	0.19901219
108	0xbeecb9ae	-0.46235412
109	0x3d17797d	0.036981095
110	0xbe85ea81	-0.26155475
111	0x3e8bdff8	0.27319312
112	0xbe47ea9f	-0.19523095
113	0xbf1584ac	-0.58405566
114	0x3dce6891	0.10078538
115	0xbe7e43e8	-0.24830592
116	0x3e7abd49	0.24486269
117	0xbc4b7e02	-0.012420179
118	0xbe8bee31	-0.27330163
119	0x3e13a08d	0.14416714
120	0xbdae5468	-0.08512193
121	0x3e943815	0.28949037
122	0x3e04b2d5	0.12958844
123	0xbde8f14f	-0.11374151
124	0xbcd41caf	-0.025892584
125	0x3e6f5e8c	0.2337591
126	0xbda08751	-0.078383096
127	0xbdaeb66d	-0.08530889
128	0xbeb6c415	-0.35696474
129	0xbe8e0672	-0.27739292
130	0xbc74e1b9	-0.014946395
131	0x3e65ea04	0.22452551
132	0x3d0c261f	0.034216043
133	0xbeb2a117	-0.34888527
134	0xbec3fcaf	-0.3827872
135	0x3d50f01e	0.051010244
136	0x3c66b65a	0.014081562
137	0x3db5a0ec	0.08868584
138	0xbe339ede	-0.17541072
139	0xbe3b7f7d	-0.18310352
140	0x3d254c7b	0.04035614
141	0xbe18a7a0	-0.14907694
142	0x3e78acd3	0.24284677
143	0xbcfe4e31	-0.031043144
144	0x3e39adec	0.18132752
145	0xbdb80d11	-0.08986867
146	0xbe4108b4	-0.18850976
147	0x3e87febb	0.2656153
148	0x3ea7e87f	0.32794568
149	0x3d2b919c	0.04188691
150	0x3e96873e	0.29400057
151	0xbcb0072b	-0.021487793
152	0x3d71c6ac	0.05902736
153	0x3e0686e8	0.131374
154	0x3ed2e998	0.41193843
155	0x3ecfc64c	0.40580976
156	0xbdf66712	-0.12031378
157	0xbeee0f33	-0.4649597
158	0xbe57478d	-0.21023388
159	0xbc755e86	-0.014976149
160	0x3d867c02	0.06566621
161	0xbf771579	-0.9651714
162	0xbea71245	-0.32631126
163	0xbe28cb8b	-0.16483895
164	0x3c54c363	0.012986037
165	0xbe522069	-0.20520176
166	0xbec796fe	-0.38982385
167	0x3e2f217c	0.17102617
168	0x3e95dcf9	0.2927015
169	0x3de15aea	0.110036686
170	0xbdf023d6	-0.11725585
171	0x3e02d0cb	0.1277496
172	0x3e3023fb	0.17201225
173	0x3ec256e4	0.37956917
174	0x3e9af811	0.30267385
175	0xbe08c21a	-0.13355294
176	0xbe2d8895	-0.16946633
177	0xbe0411de	-0.12897441
178	0xbe57fbb6	-0.21092114
179	0xbe6f8568	-0.23390734
180	0xbe0201e0	-0.12696028
181	0xbcc882ea	-0.024476487
182	0x3f030c73	0.5119087
183	0x3ea8945d	0.32925692
184	0x3e912a70	0.2835269
185	0xbf01844b	-0.5059249
186	0x3de7d324	0.11319569
187	0xbe56ee80	-0.20989418
188	0x3da75034	0.081695944
189	0x3e81d9c1	0.25361446
190	0xbe7e3510	-0.24824929
191	0x3e54d39a	0.20783845
192	0xbe3eb487	-0.18623553
193	0xbeff077a	-0.49810392
194	0x3d829da5	0.063777246
195	0x3d3a72ee	0.04551976
196	0x3d8dad73	0.069178484
197	0x3e5e27c3	0.21694855
198	0xbe4d9ef9	-0.20080175
199	0xbd8b7314	-0.06809059
200	0xbe213bfd	-0.1574554
201	0x3dfeb8d2	0.124375954
202	0xbdf5cc30	-0.12001836
203	0xbdcad1de	-0.0990331
204	0xbded14cd	-0.11576233
205	0xbebc3d31	-0.36765435
206	0xbe9b16f9	-0.30290964
207	0x3d0da6ed	0.03458302
208	0xbe8b1812	-0.27166802
209	0xbef82cfd	-0.48471823
210	0x3ed5c2b2	0.41750103
211	0x3eb40da0	0.35166645
212	0x3e8f60ae	0.28003448
213	0x3f04718d	0.51735765
214	0xbe6c877b	-0.23098557
215	0xbe2c8bc6	-0.16850194
216	0xbeb5158d	-0.35368004
217	0xbeddf0cc	-0.43347776
218	0x3edc35a9	0.4300969
219	0xbe0a0437	-0.1347817
220	0xbe6be8bb	-0.23037998
221	0xbde35490	-0.111001134
222	0xbf0d8d14	-0.55293393
223	0x3e1ef693	0.15523748
224	0x3e17f872	0.14840868
225	0xbd977634	-0.07395592
226	0xbea86d53	-0.32895908
227	0xbe40025f	-0.18750905
228	0xbf012edf	-0.50462145
229	0xbe2026cb	-0.15639798
230	0x3efb4472	0.49075657
231	0x3ef4188a	0.47674972
232	0x3ed5b8e5	0.41742626
233	0xbeb5077a	-0.35357267
234	0x3e55f2ca	0.20893398
235	0xbd2cc660	-0.042181373
236	0xbeae1832	-0.34002835
237	0x3f05444a	0.52057326
238	0x3e25b263	0.1618133
239	0x3da7a87f	0.08186435
240	0xbeb75c0d	-0.35812417
241	0xbec32fa9	-0.381223
242	0xbe8803a4	-0.26565278
243	0x3d346ebf	0.04405093
244	0xbe8370ad	-0.25671902
245	0x3c64bc71	0.013960944
246	0xbe0ea1f2	-0.13928965
247	0xbeafc1ba	-0.3432749
248	0x3d9d9f87	0.07696443
249	0xbdc390e8	-0.09549123
250	0x3d9c39f6	0.07628243
251	0xbeca1849	-0.39471653
252	0xbebe7fdc	-0.37206924
253	0x3d32fa3e	0.04369568
254	0xbe6d8465	-0.23195036
255	0x3cd19c73	0.025587296

conv1.bias f4 [32]
0	0x3de9bf0d	0.11413393
1	0xbd5f5b29	-0.054530296
2	0x3b7d92d6	0.0038692257
3	0xbe80252d	-0.25028363
4	0x3dc56e76	0.096402094
5	0xbdb30d5a	-0.08742781
6	0xbe0de8c2	-0.13858321
7	0xbd47178d	-0.048606444
8	0x3c22c150	0.009933785
9	0x3b904c6d	0.004403642
10	0xbe007560	-0.12544775
11	0x3d3762ce	0.044771962
12	0xbe4f81a9	-0.20264305
13	0xbd1f4eb6	-0.038893424
14	0x3d5b2740	0.05350423
15	0x3e241743	0.16024499
16	0x3cd90a38	0.02649413
17	0x3cf12993	0.02943877
18	0xbd9afa64	-0.075672895
19	0x3cae9776	0.021312457
20	0x3d3d4a78	0.046213597
21	0xbc6b66f6	-0.0143678095
22	0xbd34b781	-0.044120315
23	0xbeb79488	-0.35855508
24	0x3ce74a1a	0.028233577
25	0xbe92582a	-0.2858289
26	0xbe8ad60e	-0.27116436
27	0xbca97181	-0.020684006
28	0x3e032aac	0.12809247
29	0xbce60aea	-0.028081376
30	0xbd2b4b27	-0.041819718
31	0xbd395a48	-0.045252115

conv2.weight f4 [32, 32, 5, 5]
0	0x3eb31ef3	0.3498455
1	0x3e97c4cb	0.2964233
2	0x3dcd8975	0.100359835
3	0x3d24645c	0.040134773
4	0xbec09dad	-0.37620297
5	0x3d7b534b	0.06135873
6	0x3da32ce7	0.07967549
7	0x3d83fd7e	0.06444834
8	0x3e05fcdb	0.13084738
9	0x3e049bc3	0.12950043
10	0x3e0fe7d7	0.14053284
11	0x3c27bb37	0.010237507
12	0x3e52c981	0.2058468
13	0x3e83f85a	0.25775415
14	0x3e35a530	0.17738795
15	0x3e74066d	0.23830576
16	0x3e395a12	0.18100765
17	0xbe040649	-0.12893023
18	0x3c6194f2	0.0137684215
19	0x3eb7b77d	0.35882178
20	0x3daa3c22	0.08312251
21	0x3d992dbc	0.07479426
22	0xbec72269	-0.3889344
23	0xbe14e40d	-0.1454012
24	0x3ca0aa5e	0.019612487
25	0x3d3ce759	0.046119068
26	0xbca10867	-0.019657327
27	0xbe543fe2	-0.20727494
28	0xbe643e18	-0.22289312
29	0x3cba35f8	0.022730812
30	0x3e534618	0.20632207
31	0x3d4d5d16	0.0501376
32	0xbe5ef0df	-0.21771573
33	0xbd9782b9	-0.0739798
34	0x3c205f90	0.009788409
35	0x3e5185b4	0.2046116
36	0x3d6fdbb5	0.05855914
37	0xbe25579c	-0.16146702
38	0x3ce26016	0.027633708
39	0xbe00218a	-0.12512794
40	0xbe4aa6a2	-0.19790128
41	0xbd980d3d	-0.074244
42	0x3e879000	0.2647705
43	0x3db37f28	0.087644875
44	0x397ad9f2	0.00023923049
45	0xbda618d1	-0.08110202
46	0x3e760626	0.24025783
47	0x3e8495bb	0.25895485
48	0x3e222040	0.15832615
49	0x3df30396	0.11865918
50	0xbf0ddabf	-0.55411905
51	0x3ddf09c4	0.108905345
52	0x3d7f7d37	0.062375274
53	0xbe722962	-0.23648599
54	0xbdcd8978	-0.10035986
55	0xbdc2ee32	-0.095180884
56	0x3d437067	0.047714617
57	0xbe592b22	-0.2120786
58	0xbec1375d	-0.3773755
59	0xbde35e79	-0.111020036
60	0xbd69ae97	-0.057051267
61	0xbe018dd7	-0.12651764
62	0xbe604440	-0.21901035
63	0xbe88d33f	-0.26723668
64	0x3da614a9	0.08109409
65	0xbc36c4a5	-0.011155282
66	0xbe094258	-0.13404214
67	0xbea03b49	-0.3129523
68	0xbdc34e8b	-0.09536465
69	0xbd2ad087	-0.041702773
70	0x3d3d2407	0.046176936
71	0x3d0f0213	0.034914088
72	0xbec6b6ad	-0.38811246
73	0xbe31ae66	-0.17351684
74	0xbe741e29	-0.2383963
75	0x3d5e3fc9	0.05426005
76	0xbe79c3f0	-0.2439115
77	0xbd6700a2	-0.056397088
78	0x3eb0821a	0.3447426
79	0xbd87594b	-0.06608828
80	0x3dcbecc3	0.09957268
81	0xbd940a96	-0.072285816
82	0x3dc2680f	0.09492504
83	0x3e405b6d	0.18784876
84	0xbe66b056	-0.22528204
85	0x3df3401d	0.11877463
86	0x3e85dcc3	0.2614499
87	0x3d4ae3a4	0.0495335
88	0xbde4bcb6	-0.11168806
89	0xbc5d62b7	-0.013512305
90	0x3e5c54b5	0.21516688
91	0xbca0dda1	-0.01963693
92	0x3e2bbf6a	0.16772237
93	0xbcfdebdf	-0.030996261
94	0x3db87435	0.0900654
95	0xbe6c763d	-0.2309198
96	0x3d099620	0.033590436
97	0xbcf35311	-0.029702695
98	0xbe9b5ac7	-0.30342695
99	0xbd4011b9	-0.0468919
100	0xbe8fdeda	-0.2809971
101	0xbdadf9eb	-0.08494934
102	0xbe569b6a	-0.20957723
103	0xbed800d1	-0.42188123
104	0xbe097a14	-0.13425475
105	0xbc80c616	-0.015719455
106	0xbe116658	-0.14199197
107	0x3d103f40	0.03521657
108	0xbe9aba75	-0.3022038
109	0xbe49578d	-0.19662304
110	0xbe854385	-0.26028076
111	0xbe8ef87b	-0.2792395
112	0xbe97a3b5	-0.29617086
113	0xbe143777	-0.14474283
114	0xbeb6a189	-0.35670117
115	0xbe9de7b3	-0.30840835
116	0xbe7743ab	-0.24146907
117	0xbea7d21d	-0.3277749
118	0x3e1dac2f	0.15397714
119	0xbe9f7415	-0.3114325
120	0xbeaeabc9	-0.34115437
121	0xbe81a7d1	-0.25323346
122	0xbd784eaf	-0.060621914
123	0x3d9c6268	0.07635957
124	0xbe8eb3d0	-0.2787156
125	0xbe51e63d	-0.20497985
126	0x3de9ac7f	0.11409854
127	0x3e13c03d	0.14428802
128	0x3e60b503	0.2194405
129	0x3e3c37b3	0.18380623
130	0xbede811f	-0.43457887
131	0xbe892f17	-0.2679374
132	0xbda27d35	-0.079340376
133	0x3d3629ea	0.044473566
134	0x3e1f4086	0.15551957
135	0xbe426288	-0.18982899
136	0xbecfdc2f	-0.40597674
137	0xbe32fb61	-0.17478706
138	0xbe15505f	-0.1458144
139	0x3e6e944c	0.23298758
140	0xbe871d30	-0.26389456
141	0xbf150ed9	-0.5822578
142	0xbd9aab08	-0.07552153
143	0xbe524f6c	-0.2053811
144	0xbdbfa07e	-0.09356783
145	0xbece54ab	-0.40298972
146	0xbed9a516	-0.42508763
147	0x3d80d2cc	0.06290206
148	0xbe657d9e	-0.224112
149	0xbe03de2c	-0.1287772
150	0xbeffbbff	-0.49948117
151	0xbef5fa99	-0.48042753
152	0xbeabcdf8	-0.3355558
153	0xbeb260a8	-0.34839368
154	0xbe81be8b	-0.25340685
155	0x3d367be5	0.04455175
156	0xbebd00a5	-0.36914554
157	0xbe617624	-0.22017723
158	0x3c485588	0.0122274235
159	0x3dca8d6d	0.09890256
160	0xbd849ccb	-0.064752184
161	0xbd636092	-0.05551202
162	0xbd71ffe8	-0.05908194
163	0xbe5c0c7b	-0.21489136
164	0xbe9e9e52	-0.30980164
165	0x3df90560	0.12159228
166	0x3ed68fa2	0.41906458
167	0x3db16b7b	0.086630784
168	0x3deffa81	0.11717702
169	0xbee08c9e	-0.43857282
170	0x3e6b7953	0.229955
171	0x3e202d87	0.15642367
172	0x3dca8b5d	0.09889863
173	0xbc254c78	-0.010089032
174	0x3e0c06b0	0.13674426
175	0x3e9b21df	0.3029928
176	0x3e25a012	0.16174343
177	0xbd9ae2ed	-0.07562814
178	0xbe74e112	-0.23913983
179	0x3e885362	0.26626116
180	0x3ec5fd89	0.38669994
181	0x3e9f940d	0.3116764
182	0x3ea08a09	0.31355312
183	0xbe55a6db	-0.20864432
184	0x3e69566c	0.22786874
185	0xbe744bbd	-0.23857017
186	0x3d84b777	0.06480306
187	0x3dc94ba2	0.09828879
188	0x3ec41ca4	0.383031
189	0x3ce44872	0.027866576
190	0xbd5ce8ef	-0.05393308
191	0xbdac12cc	-0.08402023
192	0xbaf89362	-0.0018964822
193	0x3ee0dca0	0.43918324
194	0x3ed5404c	0.41650617
195	0xbea54f71	-0.3228717
196	0xbce18d31	-0.027533146
197	0x3e16bedd	0.14721246
198	0x3dea7ae3	0.1144922
199	0x3e95b35c	0.29238403
200	0xbd7c1032	-0.061538883
201	0x3e92007b	0.28515992
202	0x3ecf74a7	0.40518686
203	0x3dcc5d5f	0.099787466
204	0x3cac0d87	0.021002544
205	0x3d05d4a6	0.0326735
206	0xbda04e26	-0.07827406
207	0x3e20a1e9	0.15686764
208	0x3e8d4d06	0.27597827
209	0x3e986fbb	0.29772744
210	0x3e478c69	0.19487156
211	0xbd27ab9e	-0.04093515
212	0xbde4aec8	-0.111661494
213	0x3dd62ffb	0.1045837
214	0x3eb65587	0.35612127
215	0x3e89af35	0.26891485
216	0x3ef24c6d	0.47323933
217	0x3e759b58	0.2398504
218	0xbd87b96d	-0.06627164
219	0x3e8aa030	0.27075338
220	0x3c212f32	0.009837912
221	0x3ea07be4	0.3134452
222	0xbdf27822	-0.1183932
223	0xbe435593	-0.19075613
224	0xbecb91e8	-0.39759755
225	0x3d763f45	0.060118932
226	0x3d08c850	0.033394158
227	0x3e76af95	0.24090417
228	0x3dc3929a	0.095494464
229	0x3dbb1821	0.091354616
230	0x3e43ba1f	0.19113968
231	0x3e6be566	0.23036727
232	0x3e0fbae7	0.14036141
233	0x3f0ab036	0.54175127
234	0x3e35a3f0	0.17738318
235	0x3de1e761	0.1103046
236	0x3e983b6d	0.29732838
237	0x3d7237a3	0.05913509
238	0x3e6e261e	0.23256728
239	0x3e36925e	0.17829272
240	0x3e5afc8f	0.21385406
241	0x3e216e77	0.15764795
242	0x3bde2fe9	0.0067806137
243	0xbe480b22	-0.19535497
244	0x3d2be3b5	0.041965205
245	0x3e9401b7	0.28907558
246	0x3e1403e3	0.14454608
247	0x3ed1f368	0.41006017
248	0x3d54b4d7	0.051930275
249	0x3d06cc28	0.032909542
250	0xbece88b9	-0.40338686
251	0xbed2a79d	-0.41143504
252	0xbeb9e500	-0.36307526
253	0x3d4eaf01	0.050459865
254	0x3da0de59	0.078549094
255	0xbe6f3934	-0.23361665

conv2.bias f4 [32]
0	0x3ebed753	0.37273654
1	0xbdd3d13a	-0.10342641
2	0xbd3af2a1	-0.045641545
3	0xbe02bb02	-0.1276665
4	0xbdebe14f	-0.115175836
5	0xbcc5109d	-0.024055773
6	0x3da361e0	0.079776525
7	0xbd2c3807	-0.04204562
8	0x3edde555	0.4333903
9	0x3dc59b98	0.09648818
10	0x3e86717d	0.2625846
11	0x3e33ea2e	0.17569801
12	0x3e4b7b82	0.19871333
13	0x3eb461df	0.3523092
14	0xbd1857d1	-0.037193123
15	0x3e1760ad	0.14782973
16	0xbcd80685	-0.026370296
17	0x3e19c484	0.15016371
18	0x3e25514e	0.16144297
19	0x3eb46542	0.35233504
20	0x3ea21079	0.31653193
21	0x3e7b964f	0.24569057
22	0x3e4259e3	0.18979602
23	0xbd43b617	-0.047781076
24	0xbb23ceaf	-0.002499502
25	0x3db89e24	0.09014538
26	0x3e01dc7e	0.12681767
27	0xbccf599e	-0.025311287
28	0xbd576ee3	-0.052595984
29	0x3eefee64	0.46861565
30	0x3e461ca2	0.1934686
31	0x3ea992fe	0.3311996

bn1.weight f4 [32]
0	0x3f4fd6d2	0.81187165
1	0x3f4c568f	0.7981958
2	0x3f7c88b3	0.98646086
3	0x3f69c55b	0.91316766
4	0x3f81cfbd	1.0141522
5	0x3f768fad	0.9631298
6	0x3f886020	1.0654335
7	0x3f8b4f31	1.0883542
8	0x3f7837cb	0.96960133
9	0x3f806413	1.003054
10	0x3f80cd33	1.0062622
11	0x3f95f67d	1.1715847
12	0x3f82b028	1.0210009
13	0x3f83e4eb	1.0304235
14	0x3efe7ce2	0.49704653
15	0x3f74d2fd	0.9563444
16	0x3f72c13d	0.9482611
17	0x3f84d1ea	1.0376561
18	0x3f990eb8	1.1957617
19	0x3f7ed7b9	0.99547917
20	0x3f77805c	0.96680236
21	0x3f535961	0.82558256
22	0x3f8cda63	1.1004146
23	0x3f77e6d4	0.9683659
24	0x3f38b813	0.72155875
25	0x3f927baf	1.1443995
26	0x3f01ab14	0.5065167
27	0x3f7a0c78	0.97675276
28	0x3f9a8da2	1.2074473
29	0x3f980aa3	1.1878246
30	0x3f9d05a3	1.2267345
31	0x3f99f76b	1.2028631

bn1.bias f4 [32]
0	0xbeef4204	-0.46730053
1	0xbe6e93b5	-0.23298533
2	0x363dcec0	2.828354e-06
3	0xbbc571ba	-0.00602552
4	0xbdb2acd4	-0.087243706
5	0xbe91b48e	-0.28458065
6	0xbd926add	-0.07149289
7	0xbe36e011	-0.17858912
8	0xbe94aef8	-0.2903974
9	0xbe622b51	-0.22086836
10	0xbe822441	-0.25418285
11	0xbea1b6c6	-0.31584758
12	0xbe72b117	-0.23700367
13	0xbe9c4efb	-0.30529007
14	0xbd0d8125	-0.03454699
15	0xbeaf0edd	-0.34191027
16	0xbda12616	-0.078685924
17	0xbe3a91ae	-0.18219635
18	0xbdbd58ab	-0.09245428
19	0xbd2446be	-0.040106528
20	0xbebe66e8	-0.37187886
21	0xbdf74634	-0.12073937
22	0xbe3e76e9	-0.18600048
23	0xbc7bee10	-0.015376583
24	0xbe5d1694	-0.21590644
25	0xbe6853ac	-0.22688168
26	0xbe3d37a3	-0.18478255
27	0xbc988d90	-0.01862219
28	0xbe7cf75c	-0.24703735
29	0xbdf76634	-0.120800406
30	0xbeb79c7d	-0.3586158
31	0xbd419ecd	-0.047270585

bn1.running_mean f4 [32]
0	0x3dc60d1d	0.0967047
1	0x3d8259fd	0.0636482
2	0x00000003	4e-45
3	0x00000003	4e-45
4	0x3e631723	0.22176795
5	0x3e8addbe	0.271223
6	0x3e238258	0.15967691
7	0x3ee87591	0.45402196
8	0x3ea7ba4a	0.32759315
9	0x3f85daa8	1.0457354
10	0x3fc64483	1.5489658
11	0x3ea4825d	0.3213071
12	0x3ea216c8	0.31658006
13	0x4014522e	2.3175159
14	0x3e84e3e1	0.25955108
15	0x3ed74d32	0.42051083
16	0x3de92cc7	0.11385494
17	0x3f5ca468	0.86188364
18	0x3f8c6431	1.0968076
19	0x3fe6f772	1.8044264
20	0x3ecc8280	0.39943314
21	0x3f0e1979	0.5550762
22	0x3e831d34	0.25608218
23	0x00000003	4e-45
24	0x3da788f2	0.08180417
25	0x3edd333d	0.43203154
26	0x40690295	3.6407826
27	0x00000003	4e-45
28	0x3ea7e215	0.32789674
29	0x400444aa	2.066691
30	0x3ec1f0f2	0.3787914
31	0x3fa795e7	1.3092622

bn1.running_var f4 [32]
0	0x3e847fdc	0.258788
1	0x3e44f24d	0.19233055
2	0x00000003	4e-45
3	0x00000003	4e-45
4	0x3f76bdf7	0.96383613
5	0x3fb3a58b	1.4034895
6	0x3f05c396	0.52251565
7	0x3fa9c565	1.3263365
8	0x3f346f7c	0.7048261
9	0x3fb946ae	1.4474695
10	0x3fd939d6	1.6970775
11	0x3f693184	0.9109118
12	0x3f82886e	1.0197885
13	0x4091973c	4.549711
14	0x3f9df2f6	1.2339771
15	0x3f089bcd	0.53362733
16	0x3e92ea05	0.28694168
17	0x400f8c39	2.2429335
18	0x40029f6e	2.0409808
19	0x409897f5	4.7685494
20	0x4011657d	2.2718194
21	0x3fb747bc	1.4318767
22	0x3f72e79c	0.9488466
23	0x00000003	4e-45
24	0x3e8bf6a5	0.27336612
25	0x3fe80084	1.8125157
26	0x4136a628	11.4155655
27	0x00000003	4e-45
28	0x3f98bf6e	1.193342
29	0x40b78f19	5.736218
30	0x3f943fbf	1.1581954
31	0x403a9d98	2.9158688

conv3.weight f4 [64, 32, 3, 3]
0	0xbe7a241a	-0.24427834
1	0x3dc7b001	0.09750367
2	0xbe95d860	-0.29266644
3	0x3de630d2	0.112397805
4	0x3cadb6e7	0.021205379
5	0xbe931017	-0.28723213
6	0x3eb633ec	0.35586488
7	0xbe4fc2b3	-0.20289116
8	0xbd0a8662	-0.033819564
9	0x3d18b5bd	0.037282694
10	0x3da9fd0d	0.08300219
11	0xbe734623	-0.23757224
12	0x3e974d13	0.2955099
13	0x3e1a5e1f	0.15074967
14	0x3da18ba2	0.07887961
15	0xbc419a59	-0.0118165845
16	0x3eb12a5c	0.3460263
17	0x3e9fd860	0.3121977
18	0x3e124a7d	0.14286228
19	0x3e070e09	0.13188948
20	0x3c008551	0.007844285
21	0x3db14236	0.08655207
22	0x3d6afa79	0.057367776
23	0x3daee6f4	0.085401446
24	0xbe0b1880	-0.13583565
25	0xbd73560c	-0.059408233
26	0xbd191b54	-0.037379578
27	0xbdda1b6b	-0.10649761
28	0xbe065215	-0.1311725
29	0xbe53c1ac	-0.20679349
30	0xbe6fbe12	-0.2341235
31	0xbe9ba161	-0.3039656
32	0x3d150b50	0.03638774
33	0xbc316d83	-0.010829332
34	0x3d5c7302	0.053820617
35	0x3b83129e	0.004000022
36	0x3d8fc6f4	0.07020369
37	0xbe47b39b	-0.19502108
38	0xbe932a8e	-0.28743404
39	0x3e30f4ef	0.17280935
40	0xbe7a24aa	-0.24428049
41	0xbb019db6	-0.001977784
42	0x3d622919	0.055214975
43	0x3e74c914	0.2390483
44	0x3dcc6f5e	0.09982179
45	0x3be2a061	0.0069160913
46	0xbef5c9a2	-0.48005396
47	0xbe7205e2	-0.23635057
48	0xbdec23a6	-0.11530237
49	0xbe388d3b	-0.18022625
50	0xbe1f8f09	-0.15581907
51	0xbd35679b	-0.04428826
52	0x3d48f94d	0.049065877
53	0xbe8f4d0a	-0.27988464
54	0x3d65c215	0.056093294
55	0x3ed25cf4	0.41086543
56	0xbf036b29	-0.5133539
57	0xbdd86624	-0.10566357
58	0x3d958a4a	0.07301767
59	0xbe63d1ee	-0.2224805
60	0xbd9de9cc	-0.07710609
61	0xbee5812c	-0.44825113
62	0xbe67c122	-0.22632268
63	0x3c04e4a0	0.008111149
64	0xbe95c0c1	-0.29248622
65	0xbe2fd18a	-0.17169777
66	0xbea09a91	-0.31367925
67	0xbeddf780	-0.4335289
68	0xbdaa7a06	-0.083240554
69	0xbcd95a7a	-0.0265324
70	0x3eaa514a	0.33265144
71	0x3f05a03c	0.52197623
72	0x3d4d1a2a	0.05007378
73	0xbd2e6178	-0.042573422
74	0xbe801d5f	-0.25022408
75	0x3e6f0011	0.23339869
76	0xbdff7082	-0.12472631
77	0xbeedc089	-0.46435955
78	0xbb7ff9ea	-0.0039058872
79	0xbe864828	-0.26226926
80	0xbe8b4cdf	-0.27207085
81	0xbea2dec4	-0.31810582
82	0xbf03f4d0	-0.5154543
83	0xbf16b497	-0.5886931
84	0xbea1a109	-0.31568173
85	0xbbf81118	-0.007570397
86	0xbeb02e36	-0.34410256
87	0xbe21ecfc	-0.15813059
88	0x3e13bc41	0.14427282
89	0x3e5921a1	0.21204235
90	0xbd9769b7	-0.073932104
91	0xbdf5493b	-0.11976858
92	0xbde48c36	-0.111595556
93	0xbe4e12c6	-0.20124349
94	0xbba27cc6	-0.004958722
95	0xbde390f0	-0.11111629
96	0x3e11e9fd	0.14249416
97	0x3e57c7fc	0.21072382
98	0x3cc1766d	0.02361604
99	0xbd25bf6a	-0.04046575
100	0x3e1c6f42	0.15276816
101	0xbdc93b6b	-0.09825786
102	0x3df10078	0.117676675
103	0x3e0ab022	0.13543752
104	0xbe755556	-0.23958334
105	0x3e73181f	0.2373967
106	0xbe0b236f	-0.13587736
107	0x3cad98b8	0.021190986
108	0x3d5bb6dc	0.053641185
109	0xbd8ad911	-0.067796834
110	0xbe653a8c	-0.22385615
111	0x3e753128	0.23944533
112	0xbd56fb49	-0.052485738
113	0xbe3b90c3	-0.18316941
114	0x3e68403f	0.22680758
115	0x3e8819f9	0.26582316
116	0x3e1496c5	0.14510639
117	0x3e908e23	0.28233442
118	0xbccc2b72	-0.02492306
119	0x3e33ca6f	0.17557691
120	0xbda8a2c2	-0.082341686
121	0xbcdfac10	-0.027303725
122	0x3de151b7	0.11001914
123	0xbe883409	-0.266022
124	0xbe9c4ca3	-0.3052722
125	0xbf206ffd	-0.6267088
126	0x3e7c4c12	0.24638394
127	0xbe30c405	-0.17262276
128	0xbe1f06af	-0.15529893
129	0x3e20e165	0.15710981
130	0xbe4d9f86	-0.20080385
131	0xbe5caa59	-0.21549357
132	0xbe05b6ce	-0.13058016
133	0xbe0fd489	-0.1404592
134	0x3d87644d	0.06610928
135	0x3d8feb4a	0.070273
136	0xbb55b9fa	-0.0032612071
137	0xbda1de6a	-0.0790375
138	0x3cc93343	0.024560576
139	0xbe059587	-0.13045321
140	0xbda3d751	-0.08000053
141	0xbe8761f9	-0.26441935
142	0xbeb3b43e	-0.3509845
143	0x3d713d07	0.05889609
144	0x3d05533a	0.032550074
145	0x3e4d405a	0.2004408
146	0x3e18e463	0.14930873
147	0xbe8a9d28	-0.27073026
148	0xbcec3faa	-0.028838951
149	0x3cb8cd22	0.022558752
150	0x3d340d74	0.043958142
151	0x3ce53a1d	0.027981812
152	0xbd8664ba	-0.06562181
153	0xbd7b45c5	-0.061345834
154	0x3e1f60c0	0.15564251
155	0x3e8582ce	0.2607636
156	0x3d8b6783	0.06806853
157	0x3daa95fc	0.083293885
158	0xbd50a857	-0.05094179
159	0x3c4e0d4d	0.012576413
160	0x3d1e7d49	0.0386937
161	0xbecfa736	-0.4055726
162	0x3e00a53f	0.12563036
163	0x3c43cbf4	0.011950482
164	0xbf179c62	-0.59222996
165	0xbdc350ed	-0.0953692
166	0xbebc0d3b	-0.36728844
167	0xbea2dc7b	-0.31808838
168	0x3d57a7e8	0.052650362
169	0xbf2866b9	-0.6578174
170	0xbe7ebcd0	-0.24876714
171	0xbcb275be	-0.02178466
172	0x3dd3763a	0.10325284
173	0x3e951744	0.29119313
174	0x3cf7eac2	0.030263308
175	0xbd8b27ee	-0.06794725
176	0x3e276edd	0.16350885
177	0x3acfe2b0	0.0015860405
178	0x3cbbc7d6	0.022922438
179	0xbe40fb93	-0.18845968
180	0x3e59945c	0.21248001
181	0x3e2472a3	0.16059355
182	0xbc9ee9bb	-0.01939856
183	0x3e9a9634	0.3019272
184	0x3c8808a8	0.01660569
185	0xbe7e61fd	-0.24842067
186	0x3d3c015c	0.045899734
187	0xbe1afc7b	-0.15135376
188	0xbe6aef8d	-0.22942944
189	0xbeaebcfc	-0.3412856
190	0xbe8c2871	-0.27374604
191	0xbedee20e	-0.4353184
192	0x3d9dfa07	0.077137046
193	0x3d969a40	0.073536396
194	0xbdbd7c0e	-0.09252177
195	0x3e992f94	0.29919112
196	0x3e83e765	0.25762478
197	0x3e9b1049	0.30285862
198	0x3e7746f5	0.24148162
199	0x3e937650	0.28801203
200	0xbe2b31f3	-0.16718273
201	0x3e96899a	0.29401857
202	0x3ea81ea8	0.3283589
203	0xbe4faae9	-0.20280041
204	0x3e8b9eac	0.27269495
205	0xbc35e02f	-0.011100813
206	0xbe75a64a	-0.23989215
207	0x3d114ba6	0.035472535
208	0xbdbb04f6	-0.091318056
209	0x3dc91086	0.09817605
210	0xbc145be6	-0.009055113
211	0xbd96c3c9	-0.07361562
212	0x3e47b301	0.19501878
213	0x3dee5d80	0.116389275
214	0x3d192f85	0.037398834
215	0x3db8197a	0.08989234
216	0xbe1cc96a	-0.15311208
217	0xbe6c2fba	-0.23065081
218	0xbbb9bd36	-0.0056683077
219	0x3dd26cfb	0.102746926
220	0xbeb13b69	-0.3461564
221	0x3dec8d47	0.11550384
222	0xbe0d63d0	-0.13807607
223	0x3e141741	0.14461996
224	0x3e096f69	0.13421406
225	0x3c043178	0.008068435
226	0xbc9cfe3e	-0.0191642
227	0xbf079744	-0.5296519
228	0x3d2f7364	0.042834654
229	0xbdafe20a	-0.085880354
230	0xbe7b9432	-0.24568251
231	0x3e0d807a	0.13818541
232	0x3e04544a	0.12922779
233	0x3d9ec26a	0.07751925
234	0x3e00f9ca	0.12595287
235	0xbe4e644a	-0.20155445
236	0xbe3972e1	-0.18110229
237	0xbe28c47d	-0.16481204
238	0xbe3f2971	-0.18668152
239	0xbe102c6a	-0.14079443
240	0xbd6db00a	-0.058029212
241	0x3d185079	0.03718612
242	0x3d399360	0.045306563
243	0x3d427aa0	0.047480226
244	0x3d345725	0.04402842
245	0xbb654377	-0.003498284
246	0xbdafca37	-0.08583491
247	0xbd8d2dac	-0.06893477
248	0xbd309c98	-0.04311809
249	0x3e5f6a7f	0.21817969
250	0xbcf289f8	-0.029606804
251	0xbdc8a8bb	-0.09797808
252	0xbcb649ab	-0.022251924
253	0xbd6bf614	-0.057607725
254	0xbd446dfd	-0.047956455
255	0xbe657143	-0.22406487

conv3.bias f4 [64]
0	0xbe705395	-0.23469384
1	0xbec1aadd	-0.3782567
2	0xbe832b0d	-0.25618783
3	0xbe857456	-0.2606532
4	0xbe2be20a	-0.16785446
5	0xbe382247	-0.17981826
6	0xbe10316e	-0.14081356
7	0xbe753ec0	-0.23949718
8	0xbd7aed42	-0.061261423
9	0xbe86ba05	-0.26313797
10	0xbe47a3d8	-0.19496095
11	0xbedc396d	-0.43012562
12	0xbe4a5c65	-0.19761808
13	0xbf0ef9f1	-0.5585013
14	0xbdaedcdd	-0.0853822
15	0xbd664811	-0.05622107
16	0xbe132328	-0.1436888
17	0xbe93c64a	-0.2886222
18	0xbe922ad0	-0.28548288
19	0xbe9a6e98	-0.301625
20	0xbecbc062	-0.39795214
21	0x3e00791d	0.12546201
22	0x3d87e318	0.066351116
23	0xbf22312d	-0.63356286
24	0xbe77b127	-0.24188672
25	0xbe056d55	-0.13029988
26	0xbdcad0d4	-0.09903112
27	0xbf0c8942	-0.5489694
28	0xbe6ca441	-0.23109533
29	0xbdead383	-0.11466124
30	0xbdb2c800	-0.08729553
31	0xbdbd0eff	-0.09231376
32	0x3ccf7a1d	0.025326783
33	0xbf116864	-0.5679991
34	0xbde16c45	-0.11006979
35	0x3d0b7d87	0.03405526
36	0xbdcc197a	-0.09965797
37	0xbe9f69d6	-0.31135434
38	0xbe5659af	-0.20932649
39	0xbd949015	-0.07254044
40	0xbf0531d7	-0.52029175
41	0xbe259934	-0.16171724
42	0xbe5ded55	-0.21672566
43	0xbec00e76	-0.37511033
44	0x3de87fa6	0.11352472
45	0x3d4fdd2b	0.05074803
46	0xbee12e42	-0.43980604
47	0x3e6ab766	0.22921523
48	0xbed9fef9	-0.4257734
49	0xbe51146e	-0.2041795
50	0xbe54ff48	-0.20800507
51	0xbdda4bd1	-0.10658992
52	0xbdad9614	-0.08475891
53	0xbbf7c444	-0.0075612385
54	0xbe39ab2c	-0.18131703
55	0x3d9028b7	0.07039016
56	0x3dc26a3b	0.09492918
57	0xbe32091c	-0.17386287
58	0x3cbae379	0.022813546
59	0xbec753ad	-0.38931027
60	0xbe94d723	-0.29070386
61	0x3e24710d	0.1605875
62	0xbe23c8f2	-0.15994623
63	0xbe4a3d4c	-0.19749945

conv4.weight f4 [64, 64, 3, 3]
0	0x3e410157	0.18848167
1	0x3ecda00d	0.40161172
2	0xbb058ba4	-0.0020377422
3	0x3dfcb857	0.123398475
4	0x3e5a471a	0.21316186
5	0xbe48680f	-0.19570945
6	0x3db1508e	0.08657943
7	0xbe4043e9	-0.18775906
8	0xbdb16fd0	-0.08663905
9	0x3e3e45c1	0.18581297
10	0xbb62c377	-0.003460137
11	0xbe6d2957	-0.23160301
12	0x3ec0d03f	0.3765888
13	0xbdcb229b	-0.0991871
14	0xbe892859	-0.26788595
15	0x3d09578f	0.033530768
16	0x3d566c35	0.052349288
17	0xbd1b6f5d	-0.037948
18	0xbe14137d	-0.14460559
19	0xbd4022b4	-0.046908095
20	0x3d884abd	0.0665488
21	0x3c3f3856	0.011671146
22	0x3de59a5a	0.11211081
23	0xbe4cdf24	-0.20006996
24	0x3d8dc4fd	0.06922338
25	0x3e0c36d7	0.13692795
26	0xbdd8b480	-0.10581303
27	0x3dfb4bcc	0.122703165
28	0xbe3387d0	-0.17532277
29	0xbeafbeea	-0.34325343
30	0xbc822b6a	-0.015889842
31	0xbe51fa1c	-0.20505565
32	0xbe5e4138	-0.21704566
33	0xbf123c41	-0.5712319
34	0xbeb47ced	-0.3525156
35	0x3e27c3b0	0.16383243
36	0x3d6d817e	0.05798482
37	0x3e74a429	0.23890747
38	0xbdcf0ecd	-0.10110245
39	0x3d93dcac	0.07219824
40	0x3d496454	0.049167946
41	0xbea9ae07	-0.33140585
42	0x3d949d0c	0.07256517
43	0xbe6fe0b6	-0.23425564
44	0xbe7b84cd	-0.24562378
45	0xbf126dea	-0.57198966
46	0xbe22d8fe	-0.15903088
47	0x3de46415	0.11151902
48	0x3b49c119	0.0030785261
49	0xbde15b58	-0.110037506
50	0x3c918c99	0.017767237
51	0x3e20e845	0.15713604
52	0xbb8d6e68	-0.00431614
53	0xbd763e23	-0.060117852
54	0xbd754972	-0.059884496
55	0x3e34469e	0.17605063
56	0x3e4ee9ac	0.20206326
57	0x3e12faf1	0.14353539
58	0x3edcbc0b	0.43112215
59	0x3db16e68	0.086636364
60	0x3e9a7088	0.3016398
61	0x3e644b85	0.22294433
62	0xbe41c204	-0.18921667
63	0xbd9e45a1	-0.077281244
64	0x3e042d0f	0.12907813
65	0x3ea4cdf0	0.32188368
66	0xbdae78a6	-0.085191056
67	0x3e4791fb	0.19489281
68	0x3e5a4f84	0.21319395
69	0xbb436d17	-0.0029819661
70	0x3e60af09	0.2194177
71	0xbd829e49	-0.06377847
72	0x3e2a5948	0.1663562
73	0xbd1ad93e	-0.037804835
74	0xbea6a7c1	-0.3254986
75	0x3e27c4ef	0.16383718
76	0x3ddc4e1f	0.10757088
77	0xbd90edc3	-0.070765994
78	0xbe81f1a5	-0.25379673
79	0x3d387999	0.04503784
80	0x3e0b233b	0.13587658
81	0x3e2afae0	0.16697264
82	0xbd5c191b	-0.05373488
83	0xbcd6035c	-0.026124649
84	0x3eae0d45	0.339945
85	0x3e32a3b0	0.17445254
86	0xbdea3a34	-0.114368826
87	0x3ebdc34e	0.37063068
88	0x3d30d302	0.043169983
89	0xbe6cb216	-0.2311481
90	0xbcc0f016	-0.023551982
91	0x3d192f7e	0.037398808
92	0x3d193a1e	0.03740894
93	0xbd0e780d	-0.034782458
94	0xbe5757c3	-0.21029572
95	0xbd8aeaae	-0.06783043
96	0xbec43208	-0.3831942
97	0xbeee4582	-0.46537405
98	0x3d6a2c68	0.057171255
99	0xbe1e74d9	-0.15474261
100	0xbe724f3d	-0.2366304
101	0xbd61e507	-0.055150058
102	0x3cc413b4	0.023935176
103	0xbde4a738	-0.11164707
104	0x3d72250c	0.059117362
105	0xbeec8f16	-0.46202916
106	0xbe32b2f1	-0.17451073
107	0x3dea7323	0.11447742
108	0xbef344ae	-0.47513336
109	0xbd0f0334	-0.034915164
110	0x3da35c3f	0.07976579
111	0xbe8329dc	-0.25617874
112	0xbb99dbfe	-0.0046954146
113	0x3eb6b290	0.35683107
114	0xbe86c6f7	-0.26323673
115	0x3e60fe47	0.21971999
116	0x3e1152e4	0.14191777
117	0x3995f824	0.00028604374
118	0xbda6c4d9	-0.081430145
119	0x3a25cfb6	0.0006325202
120	0x3e8a0732	0.26958615
121	0xbcb9f07f	-0.022697685
122	0x3e122a4c	0.14273947
123	0x3bf4532c	0.007456204
124	0xbe14ea62	-0.14542535
125	0xbddf9b8b	-0.10918339
126	0x3e47b3f6	0.19502243
127	0x3e0c9522	0.13728765
128	0xbe5241a9	-0.2053286
129	0x3d96e090	0.07367051
130	0xbde6d8ef	-0.112718455
131	0xbe92a4c7	-0.2864134
132	0xbd427846	-0.047477983
133	0xbe5ad584	-0.21370512
134	0xbeca9bf0	-0.39572096
135	0x3e0f562d	0.13997717
136	0xbe1d0e8a	-0.15337577
137	0xbebaa282	-0.3645211
138	0xbe2649cf	-0.16239093
139	0xbdb853e4	-0.09000376
140	0xbe954f49	-0.29162052
141	0xbe302251	-0.1720059
142	0x3e2941ad	0.1652896
143	0x3ca9bda3	0.020720309
144	0xbd81de75	-0.063412584
145	0x3d3e1052	0.046402283
146	0x3e2cf007	0.16888438
147	0xbdb2d2bc	-0.08731601
148	0x3e3efbc7	0.18650733
149	0x3e75103e	0.23931977
150	0x3d89b356	0.06723659
151	0xbcd55a70	-0.0260441
152	0xbe7dd4b8	-0.24788177
153	0xbddcf6b3	-0.10789242
154	0x3e20ff9d	0.15722509
155	0xbde0a752	-0.10969414
156	0xbe030ca9	-0.12797798
157	0x3e69dd26	0.22838268
158	0x3df0ba0c	0.117542356
159	0xbe49df5b	-0.1971411
160	0x3e7c74b2	0.2465389
161	0x3dc4e084	0.096131355
162	0xbd21b941	-0.039483313
163	0x3c505daf	0.012717648
164	0xbd1ab374	-0.037768796
165	0x3d4e293e	0.0503323
166	0xbbe3334d	-0.0069336058
167	0x3d90685d	0.07051156
168	0x3e3474ed	0.17622729
169	0xbeaf474d	-0.34234086
170	0xbe41cf79	-0.18926801
171	0xbea3429c	-0.31886756
172	0x3bfc7017	0.007703792
173	0xbdb16121	-0.08661104
174	0xbdc0ccfe	-0.09414099
175	0xbe72dd4c	-0.2371723
176	0xbcfb7dbb	-0.030699601
177	0x3e0f5d81	0.14000513
178	0xbda49897	-0.08036917
179	0x3e358ad1	0.17728736
180	0x3cc30a40	0.023808599
181	0x3d6c8c6c	0.057751104
182	0x3e3453c0	0.17610073
183	0xbe717005	-0.23577888
184	0xbe548651	-0.20754363
185	0x3d6ba9a0	0.057534814
186	0xbd4543e4	-0.04816045
187	0xbe841365	-0.25796047
188	0xbe13dc66	-0.14439544
189	0xbe5e5b38	-0.21714485
190	0x3d48343b	0.048877936
191	0x3e0786ad	0.13234968
192	0xbc9b9081	-0.018989803
193	0x3e697c8e	0.2280142
194	0x3d94e983	0.07271101
195	0x3d5c22e1	0.0537442
196	0x3d81d707	0.06339841
197	0xbe14f904	-0.14548117
198	0x3cd6cfcc	0.026222132
199	0xbdeb7aac	-0.11498007
200	0xbd0bbbff	-0.034114834
201	0x3e39adcf	0.18132709
202	0x3e06c3a0	0.13160563
203	0x3d5617ff	0.05226898
204	0xbe832158	-0.25611377
205	0x3dc2cab8	0.09511322
206	0x3dabf6cf	0.083966844
207	0x3d4223f0	0.047397554
208	0xbe9229d4	-0.28547537
209	0xbceb8850	-0.028751522
210	0x3df3bf8a	0.119017676
211	0xbca1177e	-0.019664522
212	0x3cc88247	0.024476184
213	0x3cb43e22	0.022002283
214	0xbe0c9e63	-0.13732295
215	0xbdf654ec	-0.12027916
216	0x3e02a616	0.1275867
217	0x3e05cb03	0.13065724
218	0xbf09138f	-0.5354547
219	0x3e0cb99b	0.13742678
220	0xbe5e727b	-0.21723358
221	0xbeb80c49	-0.35946873
222	0xbe4439b1	-0.19162633
223	0xbee48b08	-0.44637322
224	0x3b662922	0.0035119732
225	0x3e2d1890	0.16903901
226	0x3e18c9ab	0.1492068
227	0xbdc05da1	-0.09392858
228	0x3ea8f7db	0.330016
229	0x3d873d03	0.06603434
230	0xbe6a68df	-0.22891568
231	0x3e0f06f7	0.139675
232	0xbe70a5fa	-0.23500815
233	0xbdda4da1	-0.10659338
234	0x3e126f12	0.14300182
235	0x3eaa4233	0.3325363
236	0xbdc934d4	-0.09824529
237	0x3e521fb8	0.20519912
238	0x3df00f87	0.117217116
239	0xbe734029	-0.23754944
240	0x3d0ff24a	0.035143174
241	0xbe9770e3	-0.29578313
242	0xbe8cadfc	-0.2747649
243	0x3d422e2f	0.047407325
244	0x3e06c783	0.13162045
245	0xbeafb903	-0.3432084
246	0xbc96e5b5	-0.01842008
247	0xbbd485f5	-0.0064856955
248	0xbe43ad99	-0.19109191
249	0xbe51f80c	-0.20504779
250	0xbddef685	-0.108868636
251	0xbd713d4a	-0.05889634
252	0xbea49e1e	-0.32151884
253	0x3c78d1b4	0.015186716
254	0x3e0b67ba	0.13613787
255	0x3d10e6b6	0.035376273

conv4.bias f4 [64]
0	0x3d871bc7	0.06597095
1	0x3e18aa1c	0.14908642
2	0xbce95e04	-0.028487213
3	0xbc6289db	-0.013826813
4	0x3e52c0c3	0.20581345
5	0x3e246828	0.16055357
6	0x3c897cae	0.016783085
7	0xbd9bdc3e	-0.07610367
8	0xbd699cf0	-0.057034433
9	0x3d42f2c2	0.047594793
10	0x3ebb75a2	0.36613184
11	0x3e57c7e1	0.21072342
12	0xbdb8cf64	-0.090239316
13	0x3d9a8e8e	0.075467214
14	0x3de6ffa0	0.11279225
15	0x3dc5a4b3	0.096505545
16	0x3e173eb6	0.14770016
17	0x3e3337d1	0.17501761
18	0x3d9fcbae	0.07802521
19	0x3e684aa4	0.22684723
20	0x3d5bc937	0.05365869
21	0x3bfe1a68	0.0077546127
22	0x3d997c04	0.07494357
23	0x3d8acaaf	0.0677694
24	0x3db16300	0.08661461
25	0x3cac5562	0.021036807
26	0x3b9eb8a2	0.0048437873
27	0xbdb29efe	-0.087217316
28	0xbe00f507	-0.1259347
29	0xbd500989	-0.050790343
30	0xbdc3e1dc	-0.09564564
31	0x3e6e91b4	0.23297769
32	0xbd19e0e8	-0.037568003
33	0x3e4615bd	0.1934423
34	0x3d689d7a	0.056790806
35	0x3e77bdc2	0.2419348
36	0x3e2d5d5f	0.1693015
37	0xbd280746	-0.04102256
38	0x3dd2d3c4	0.10294297
39	0x3e45b7e4	0.1930843
40	0xbe8e61c1	-0.27808955
41	0xbd7bfdb0	-0.061521232
42	0x3e277281	0.16352274
43	0xbd182f84	-0.03715469
44	0x3e8e6f1b	0.27819142
45	0x3e3ee780	0.18642998
46	0xbd8d4dc7	-0.068996005
47	0x3d247239	0.040147994
48	0x3d2a1db5	0.041532237
49	0x3e357d5d	0.17723604
50	0x3e820144	0.2539159
51	0x3e451af6	0.19248566
52	0x3e456c53	0.19279604
53	0x3e3e73a1	0.18598796
54	0xbda45127	-0.08023291
55	0x3cbeb7d3	0.023281014
56	0x3e820a83	0.25398645
57	0x3e3c853b	0.18410198
58	0x3e2a4027	0.16626035
59	0xbcd841b4	-0.026398517
60	0x3e39b804	0.18136603
61	0x3cdd5ad5	0.027020851
62	0xbd6fb697	-0.05852374
63	0xbde611e9	-0.11233885

bn2.weight f4 [64]
0	0x3f5b936d	0.8577183
1	0x3fb9ec2b	1.4525198
2	0x3f6fe7ba	0.9371296
3	0x3f66764d	0.9002426
4	0x3f63f0ae	0.89039123
5	0x3f726db5	0.9469865
6	0x3f5422d2	0.8286563
7	0x3f7f3e2c	0.9970424
8	0x3f8db4ce	1.1070802
9	0x3f72c035	0.94824535
10	0x3ea2c5d9	0.3179157
11	0x3f44a62c	0.7681606
12	0x3f9547cc	1.1662536
13	0x3f779fc5	0.96728164
14	0x3f61a4d2	0.8814212
15	0x3f8851d3	1.0649971
16	0x3f91fbcb	1.1404966
17	0x3f769cd5	0.96333057
18	0x3f7544d7	0.95808166
19	0x3f77480b	0.96594304
20	0x3f9d1e94	1.2274957
21	0x3fa686fe	1.3009946
22	0x3f8463d4	1.0342965
23	0x3f7a6a72	0.9781867
24	0x3f88ba0d	1.0681778
25	0x3f56882f	0.8380155
26	0x3fcde328	1.6084948
27	0x3f926dea	1.1439793
28	0x3fa316ca	1.274133
29	0x3f1da57f	0.6158065
30	0x3f4e6f49	0.8063856
31	0x3f5f4235	0.872104
32	0x3f7216ed	0.9456623
33	0x3f83d5f5	1.029967
34	0x3f8a0542	1.0782855
35	0x3fa37e5b	1.2772936
36	0x3f629a66	0.88516843
37	0x3f7548a3	0.9581396
38	0x3f4a763b	0.79086655
39	0x3f71e449	0.9448896
40	0x3f65aafe	0.8971404
41	0x3f77c71c	0.9678819
42	0x3f6704bf	0.90241617
43	0x3f759e9b	0.9594514
44	0x3f831e3b	1.0243601
45	0x3f6b65d3	0.91952246
46	0x3f8085dd	1.0040852
47	0x3f84d0d7	1.0376233
48	0x3f9ccd4c	1.2250152
49	0x3f720421	0.9453755
50	0x3f97b62a	1.1852467
51	0x3fa72fe6	1.3061492
52	0x3f9bcf00	1.2172546
53	0x3f92a725	1.1457258
54	0x3f5ea609	0.869721
55	0x3f44a40f	0.76812834
56	0x3f2d7c06	0.6776737
57	0x3fa0ad96	1.2552974
58	0x3f8c6e5d	1.097118
59	0x3fa4fedd	1.2890278
60	0x3f90d28e	1.1314256
61	0x3f8fe102	1.1240542
62	0x3f943841	1.1579667
63	0x3f6860e3	0.9077284

bn2.bias f4 [64]
0	0xbd45711f	-0.048203584
1	0xbe23d51b	-0.15999262
2	0x3c41d4ce	0.011830522
3	0xbe5b6cf1	-0.21428277
4	0xbcccd733	-0.025004959
5	0xbe3eb184	-0.18622404
6	0xbe6119ec	-0.21982545
7	0x3ca09ea9	0.019606905
8	0xbb388226	-0.0028153746
9	0x3b60a080	0.0034275353
10	0xbe551332	-0.20808104
11	0xbe0eefff	-0.13958739
12	0xbcb387a0	-0.021915257
13	0xbc858420	-0.016298354
14	0xbc65aa17	-0.014017603
15	0x3843d900	4.669372e-05
16	0xbcea741b	-0.028619817
17	0xbd846bd8	-0.06465882
18	0x3dc78cf4	0.097436816
19	0xbd8801b8	-0.06640953
20	0x3c62ca94	0.013842244
21	0x3dda9329	0.106726
22	0xbe037979	-0.12839307
23	0xbe82baaa	-0.25533038
24	0xbcdc3bd2	-0.026883993
25	0xbe14fcf5	-0.1454962
26	0xbe79b07f	-0.24383734
27	0x3bff898c	0.0077983793
28	0xbbc3fccb	-0.005981063
29	0xbd971a42	-0.07378055
30	0xbacf913f	-0.0015836133
31	0xbd258ff8	-0.040420502
32	0x3b3b911b	0.0028620425
33	0xbe1f988b	-0.15585534
34	0xbdd5f51c	-0.104471415
35	0x3d181620	0.037130475
36	0xbcb22a2b	-0.021748623
37	0x3bfcef7f	0.00771898
38	0xbd2e2310	-0.042513907
39	0x3aab42e5	0.0013066201
40	0xbe89114e	-0.26771015
41	0x3b7f55be	0.0038961018
42	0x3c186db1	0.009303496
43	0x3afd7847	0.0019338214
44	0x3d9cb760	0.076521635
45	0x3d0b17c4	0.03395821
46	0x3cab195b	0.020886114
47	0xbdaf6dcc	-0.08565864
48	0xbe24d585	-0.16097076
49	0xbdce37e3	-0.10069253
50	0x3d0a4b25	0.03376307
51	0x3d45ffb5	0.048339564
52	0x3d4723ea	0.048618235
53	0x3d185d03	0.037198078
54	0x3e1b76d9	0.15182056
55	0xbe9d713c	-0.30750453
56	0xbe024314	-0.12720901
57	0xbd4c8653	-0.04993279
58	0xbd43b7b1	-0.047782604
59	0x3e3e7cb6	0.18602261
60	0xbdcede09	-0.101009436
61	0x3d3b320b	0.04570202
62	0xbdf3e9b5	-0.119098105
63	0xbe80e93a	-0.25177938

bn2.running_mean f4 [64]
0	0x4118e542	9.555971
1	0x41993937	19.152937
2	0x00000003	4e-45
3	0x4116fbc5	9.436467
4	0x4100445e	8.016691
5	0x4239ad74	46.419388
6	0x4270eec6	60.233177
7	0x00000003	4e-45
8	0x00000003	4e-45
9	0x40321b2e	2.782909
10	0x42c5e8f8	98.95502
11	0x424153dc	48.331894
12	0x406563d0	3.584217
13	0x400abadc	2.167655
14	0x3f9a554e	1.2057283
15	0x40e40981	7.12616
16	0x418d4d29	17.662676
17	0x417bf374	15.746937
18	0x40d9b1e3	6.8029647
19	0x412f3705	10.9509325
20	0x3fcb5dcc	1.5888
21	0x400f9c0d	2.2438996
22	0x41b742a7	22.907545
23	0x40b9623c	5.7932415
24	0x41343bdd	11.264615
25	0x40567515	3.3508961
26	0x421e203f	39.53149
27	0x4032c1ef	2.7930868
28	0x414152a5	12.082677
29	0x409559cf	4.667213
30	0x00000003	4e-45
31	0x417e32cf	15.887404
32	0x00000003	4e-45
33	0x405b1e68	3.4237309
34	0x4013d48f	2.3098485
35	0x3fb1d843	1.3894123
36	0x41717608	15.091316
37	0x40caf542	6.3424387
38	0x425d639e	55.347282
39	0x40c84e01	6.259522
40	0x4042dd41	3.0447543
41	0x00000003	4e-45
42	0x40866fac	4.201132
43	0x00000003	4e-45
44	0x41a07378	20.056381
45	0x405b79ae	3.4293017
46	0x4057b17e	3.3702083
47	0x41127614	9.153828
48	0x40ec2df0	7.3806076
49	0x411e32b6	9.887381
50	0x4178d062	15.550875
51	0x40959383	4.674257
52	0x40f6bc23	7.710466
53	0x41b81b1a	23.013233
54	0x40d2ec37	6.591335
55	0x419e075f	19.7536
56	0x415d4e1c	13.83157
57	0x40ef233e	7.473052
58	0x41818266	16.188671
59	0x41edb54b	29.713522
60	0x41883698	17.026657
61	0x4075393a	3.8316178
62	0x41aec265	21.84492
63	0x40b9e79c	5.8095226

bn2.running_var f4 [64]
0	0x44771867	988.3813
1	0x44f37d11	1947.9083
2	0x00000003	4e-45
3	0x445e19a9	888.40094
4	0x44372915	732.6419
5	0x45086c1a	2182.7563
6	0x4548ea6c	3214.6514
7	0x00000003	4e-45
8	0x00000003	4e-45
9	0x437a6dc6	250.4288
10	0x45d30866	6753.05
11	0x45534e91	3380.9104
12	0x438cc858	281.5652
13	0x42cb8ed7	101.778984
14	0x42df5d8a	111.68269
15	0x441f8497	638.0717
16	0x44dc9483	1764.641
17	0x45390983	2960.5945
18	0x443b086c	748.1316
19	0x447b1481	1004.3204
20	0x429dedd1	78.964485
21	0x42e62603	115.07424
22	0x455f3bf6	3571.7476
23	0x43eb08f4	470.06995
24	0x44b9df46	1486.9773
25	0x43ec819d	473.0126
26	0x451446e4	2372.4307
27	0x4342fae4	194.98004
28	0x43cf4b63	414.58896
29	0x42bc46a7	94.13799
30	0x00000003	4e-45
31	0x44a35a41	1306.8204
32	0x00000003	4e-45
33	0x43a3daea	327.71027
34	0x4326dc26	166.85995
35	0x42e3c384	113.88187
36	0x44ffa248	2045.0713
37	0x440f4a5a	573.16174
38	0x448c95f6	1124.6863
39	0x44326bb8	713.6831
40	0x43c80fac	400.12244
41	0x00000003	4e-45
42	0x43e29e12	453.23492
43	0x00000003	4e-45
44	0x455132cb	3347.1746
45	0x43b28e32	357.1109
46	0x43150256	149.00912
47	0x44953f92	1193.9866
48	0x4485acde	1069.4021
49	0x443bc7f6	751.1244
50	0x44f7b604	1981.688
51	0x43d4b826	425.43866
52	0x44849bc7	1060.868
53	0x4562ea5b	3630.6472
54	0x442d9d0a	694.45374
55	0x4559360e	3475.3784
56	0x44b3be0c	1437.939
57	0x43fd910c	507.13318
58	0x44b5d1e3	1454.559
59	0x44ba7a2a	1491.8176
60	0x44969698	1204.706
61	0x43c1bbda	387.4676
62	0x44eb0f9e	1880.488
63	0x446abab4	938.91724

conv5.weight f4 [32, 64, 5, 5]
0	0x3e039642	0.12850288
1	0x3dbd4aa7	0.092427544
2	0xbd5b379e	-0.053519838
3	0x3e813e7f	0.25242993
4	0xbe1a944a	-0.1509563
5	0xbd119034	-0.035537913
6	0xbdbcbb66	-0.09215431
7	0x3e36d580	0.17854881
8	0x3e67d097	0.22638164
9	0xbf0161dc	-0.50539947
10	0xbd0611f4	-0.032731965
11	0xbe5c0f9b	-0.21490328
12	0x3da627fd	0.08113096
13	0x3dee65d8	0.11640519
14	0xbe80c774	-0.2515217
15	0xbe122399	-0.14271392
16	0xbe4b45d4	-0.19850856
17	0xbd1059d0	-0.035241902
18	0xbbcc7025	-0.0062389546
19	0xbcabbf99	-0.020965384
20	0xbdb55a92	-0.088551655
21	0x3d14d12b	0.03633229
22	0xbcafaf22	-0.021445815
23	0x3ea0ec92	0.3143049
24	0xbe5c8b1f	-0.21537445
25	0x3e47167c	0.19442171
26	0x3e250a0c	0.16117114
27	0xbd4ee356	-0.050509773
28	0xbe1bb522	-0.15205815
29	0x3d16587c	0.03670548
30	0x3e3097aa	0.17245355
31	0xbcbb292d	-0.022846783
32	0xbe8135cb	-0.25236353
33	0xbcd90f0c	-0.026496433
34	0x3ca6c06c	0.020355426
35	0xbde0b8e8	-0.10972768
36	0xbdbab391	-0.09116281
37	0x3d7d6da6	0.061872147
38	0xbe9d5a9e	-0.30733198
39	0xbe84fc7a	-0.25973874
40	0x3cffb6a5	0.031215021
41	0xbe94a428	-0.2903149
42	0xbecd54bc	-0.4010371
43	0xbe8985ed	-0.2685999
44	0xbea4d515	-0.3219382
45	0x3ee1a8a6	0.4407398
46	0xbe611a16	-0.21982607
47	0xbda3b6ee	-0.079938754
48	0xbe1a68ca	-0.15079036
49	0xbdc88dd2	-0.09792675
50	0xbcc82219	-0.024430322
51	0xbd4a6dd2	-0.04942114
52	0xbd72dd77	-0.059293237
53	0x3b153d4b	0.002277213
54	0x3e5c7454	0.2152875
55	0x3e0272ca	0.12739101
56	0x3d38c92e	0.045113735
57	0x3e3beb36	0.18351445
58	0xbcedee22	-0.029044215
59	0x3d3db48b	0.046314757
60	0x3e8ca65b	0.2747067
61	0xbe263812	-0.16232327
62	0x3e5b4a17	0.21414982
63	0xbc9ede33	-0.019393062
64	0xbd96c4b9	-0.073617406
65	0x3d9ffa7b	0.07811447
66	0xbd95dd8d	-0.07317648
67	0xbd7d748f	-0.061878737
68	0xbda3c1b0	-0.07995927
69	0x3e2a1ab3	0.16611747
70	0xbcafbff3	-0.021453833
71	0xbbb5e898	-0.005551409
72	0x3d8bc66a	0.06824954
73	0x3da534bd	0.080667
74	0x3e4fc3db	0.20289557
75	0xbea271d8	-0.3172748
76	0x3d6971b4	0.0569932
77	0x3d5bfe2a	0.053709187
78	0xbea80437	-0.32815716
79	0xbf18343d	-0.5945471
80	0x3dff2366	0.124579236
81	0x3e20a6f3	0.15688686
82	0x3e12f28a	0.14350334
83	0xbe11acff	-0.14226149
84	0x3d8938e4	0.06700304
85	0xbe011aa7	-0.12607823
86	0x3db811b3	0.08987751
87	0x3de5a1d2	0.112125054
88	0x3e3fb5ef	0.18721746
89	0xbe4361d4	-0.19080287
90	0xbe6e8725	-0.23293741
91	0x3d0f60ce	0.03500443
92	0x3e77838b	0.24171273
93	0xbd3c51f5	-0.045976598
94	0xbe04413b	-0.12915508
95	0xbdeb9ddb	-0.11504718
96	0x3da98f73	0.08279314
97	0x3e4557dd	0.19271798
98	0xbb97b60e	-0.004629857
99	0xbe0796bb	-0.13241093
100	0x3e01a742	0.1266146
101	0x3e0a1d1b	0.13487665
102	0xbe5ddb2f	-0.21665643
103	0x3e1052a6	0.14094028
104	0xbea849b0	-0.3286872
105	0xbede8d3a	-0.43467122
106	0x3e264520	0.16237307
107	0x3e72b9e8	0.2370373
108	0x3e7214a9	0.23640694
109	0xbcdd4294	-0.027009286
110	0xbee66ba5	-0.45004
111	0x3e2fa380	0.17152214
112	0xbbc00658	-0.0058601312
113	0xbd0bbe2c	-0.03411691
114	0xbdd7e14f	-0.10541021
115	0xbc711e62	-0.0147167165
116	0x3e5ac772	0.21365145
117	0x3d1bc936	0.038033687
118	0x3e70429f	0.23462914
119	0xbd09bab6	-0.033625327
120	0xbe3a05c4	-0.18166262
121	0x3d3f00f8	0.046631783
122	0xbdd2895c	-0.102801055
123	0x3e8a705b	0.27038845
124	0xbe1fdc20	-0.15611315
125	0x3e63fec2	0.22265151
126	0xbc9cc9fc	-0.019139282
127	0xbe2eb7e1	-0.17062332
128	0xbdb9a876	-0.090653345
129	0x3d9ca400	0.07648468
130	0xbd5bf9a3	-0.05370487
131	0x3d914252	0.07092728
132	0xbe4505a1	-0.19240429
133	0xbec41232	-0.38295132
134	0x3d9bc729	0.07606346
135	0xbe8a527d	-0.2701606
136	0xbe6ca6b3	-0.23110466
137	0xbeacba84	-0.3373605
138	0xbe1f47dd	-0.15554757
139	0xbd51a1d8	-0.051179737
140	0xbd16495a	-0.036691047
141	0xbd0133ca	-0.03154353
142	0xbd820d27	-0.06350165
143	0x3bb91a3b	0.005648879
144	0xbda90949	-0.08253724
145	0x3e120925	0.14261301
146	0xbea4d3cc	-0.32192838
147	0xbdeab045	-0.11459402
148	0xbe553131	-0.20819546
149	0x3db9ccfb	0.090723
150	0xbcae96ab	-0.021312078
151	0xbe3dd2c2	-0.18537429
152	0xbbf40c10	-0.007447727
153	0x3e99b2cd	0.30019227
154	0x3ec587dc	0.38580215
155	0xbe754dd0	-0.23955464
156	0xbe5f2408	-0.21791089
157	0xbea86317	-0.328881
158	0xbdaa6315	-0.0831968
159	0xbe049d36	-0.12950596
160	0xbdf604f3	-0.12012663
161	0xbd80b6db	-0.06284877
162	0xbed64b9d	-0.41854563
163	0xbe65dd7a	-0.22447768
164	0xbd12b998	-0.035821527
165	0x3c6f7b4b	0.014616798
166	0x3e9184ad	0.28421536
167	0x3bb3f994	0.0054923985
168	0x3d285fcd	0.041106988
169	0x3d94542c	0.07242617
170	0xbe15d5d3	-0.14632349
171	0x3e6a23db	0.2286524
172	0x3e54c66f	0.20778821
173	0xbe694ff8	-0.22784412
174	0x3d4b1963	0.049584758
175	0xbd3d990d	-0.04628854
176	0xbdb7fdb0	-0.08983934
177	0x3d39946e	0.04530757
178	0xbd106ed5	-0.035261948
179	0xbcc40414	-0.023927726
180	0x3e0ed38f	0.1394789
181	0x3d12eef0	0.0358724
182	0x3e7dab23	0.24772315
183	0x3cdc587b	0.02689766
184	0x3d254d72	0.04035706
185	0x3e439f27	0.1910368
186	0x3e00a2f8	0.12562168
187	0x3e645889	0.22299398
188	0x3dc7cead	0.09756217
189	0x3e4998c0	0.19687176
190	0x3c7685fd	0.015046594
191	0x3db524a2	0.08844878
192	0x3e2b0319	0.167004
193	0xbad0d643	-0.0015932996
194	0x3d370f69	0.04469243
195	0x3d962975	0.07332126
196	0x3db9ebe7	0.09078198
197	0x3e4cc5d1	0.19997336
198	0x3e50d65e	0.20394275
199	0x3e095e94	0.13414985
200	0x3dbe98bf	0.09306478
201	0x3e1a0d74	0.15044194
202	0x3e4804e4	0.19533116
203	0x3d645f01	0.055754665
204	0x3cf50bfc	0.029912941
205	0x3da77377	0.0817632
206	0x3d4b6ab6	0.049662314
207	0xbd39675b	-0.045264583
208	0xbde0c8be	-0.109757885
209	0xbe0149b3	-0.1262577
210	0xbcf42a80	-0.029805422
211	0xbb83d0bc	-0.004022686
212	0xbdb4853c	-0.08814475
213	0xbe0fce96	-0.1404365
214	0xbd79975a	-0.060935356
215	0xbd4bc728	-0.049750477
216	0xbd1acd65	-0.037793536
217	0x3c07a400	0.008278847
218	0xbd5f3def	-0.054502424
219	0xbe25b581	-0.1618252
220	0x3e11230b	0.14173524
221	0x3d24f723	0.04027475
222	0x3d8014fc	0.062540025
223	0xbb414e83	-0.002949626
224	0xbe70830a	-0.23487487
225	0xbe136f8c	-0.1439802
226	0x3d9149a4	0.07094124
227	0xbe069569	-0.13142933
228	0x3d2134fb	0.039357167
229	0x3da34807	0.079727225
230	0xbdc860eb	-0.09784111
231	0x3df71a2a	0.12065537
232	0xbecd785c	-0.4013089
233	0xbd7f29fe	-0.062295906
234	0x3dc2e61a	0.09516545
235	0xbe66e700	-0.22549057
236	0x3da443a3	0.08020713
237	0xbe5ef2c6	-0.21772298
238	0xbd0d3994	-0.03447874
239	0xbd05cf43	-0.032668363
240	0xbdec7cb2	-0.11547221
241	0xbde7501b	-0.11294576
242	0xbe331a94	-0.17490608
243	0xbeb5a1e4	-0.35475075
244	0xbe945e3a	-0.2897814
245	0x3e90033d	0.2812747
246	0x3e7806f6	0.24221405
247	0xbe6d4e08	-0.23174298
248	0xbd66763c	-0.0562651
249	0xbe19f57e	-0.15035054
250	0x3d3d8958	0.04627356
251	0xbddea676	-0.10871594
252	0xbd8e3e52	-0.069454804
253	0xbe1aad6f	-0.15105222
254	0xbdacf1b5	-0.084445395
255	0xbdc53c7f	-0.09630679

conv5.bias f4 [32]
0	0xbd639f09	-0.05557159
1	0xbe50268c	-0.20327204
2	0xbefb1a58	-0.49043536
3	0xbea38f7d	-0.3194541
4	0x3ce03742	0.027370099
5	0xbec03444	-0.37539876
6	0xbe306892	-0.1722739
7	0xbe4a806c	-0.19775552
8	0x3c838dd7	0.016058845
9	0x3d1d3f70	0.038390577
10	0xbe6eb640	-0.2331171
11	0xbe4109be	-0.18851373
12	0xbec7ecef	-0.39047953
13	0xbe39f9cf	-0.181617
14	0xbd5e6cab	-0.054302853
15	0xbeaa2a75	-0.33235517
16	0xbe0c36ca	-0.13692775
17	0xbcee8fd7	-0.029121323
18	0xbe25264e	-0.16127893
19	0xbe98b41d	-0.29824916
20	0xbe772795	-0.24136193
21	0xbe64a427	-0.22328244
22	0xbe3d5081	-0.18487741
23	0xbe651230	-0.22370219
24	0x3c52733a	0.012844855
25	0xbe54e148	-0.20789063
26	0xbeb52693	-0.35380992
27	0xbe00cf4f	-0.12579082
28	0xbe314caa	-0.17314401
29	0x3b694f44	0.0035600225
30	0xbe17ddb5	-0.14830668
31	0xbe48113c	-0.19537824
